…
[1mparameter[22m: epochs=20,batch_size=256,lr=0.001,device=cuda,chinese=C:/Users/Bowell/Desktop/DEEPLEARNING/data2(1)/Desktop/crnn-master/data/chinese.txt,images=C:/Users/Bowell/Desktop/DEEPLEARNING/data2(1)/Desktop/crnn-master/data/images/,labelsC:/Users/Bowell/Desktop/DEEPLEARNING/data2(1)/Desktop/crnn-master/data/labels/,imgH=32,nc=1,nh=256,val_epoch=5,save_all=False,best=0.5,test=False,all=False,weights=weights/best_15_2.3741533897783116_0.726027397260274.pt,name=weights
[1moptimizer[22m:
Adam (
Parameter Group 0
    amsgrad: False
    betas: (0.9, 0.999)
    eps: 1e-08
    lr: 0.001
    weight_decay: 0
)
[1mmodel[22m:
CRNN(
  (cnn): Sequential(
    (0): Conv2d(1, 64, kernel_size=(3, 3), stride=(1, 1), padding=(1, 1), bias=False)
    (1): BatchNorm2d(64, eps=1e-05, momentum=0.1, affine=True, track_running_stats=True)
    (2): ReLU(inplace=True)
    (3): MaxPool2d(kernel_size=2, stride=2, padding=0, dilation=1, ceil_mode=False)
    (4): Conv2d(64, 128, kernel_size=(3, 3), stride=(1, 1), padding=(1, 1), bias=False)
    (5): BatchNorm2d(128, eps=1e-05, momentum=0.1, affine=True, track_running_stats=True)
    (6): ReLU(inplace=True)
    (7): MaxPool2d(kernel_size=2, stride=2, padding=0, dilation=1, ceil_mode=False)
    (8): Conv2d(128, 256, kernel_size=(3, 3), stride=(1, 1), padding=(1, 1), bias=False)
    (9): BatchNorm2d(256, eps=1e-05, momentum=0.1, affine=True, track_running_stats=True)
    (10): ReLU(inplace=True)
    (11): Conv2d(256, 256, kernel_size=(3, 3), stride=(1, 1), padding=(1, 1), bias=False)
    (12): BatchNorm2d(256, eps=1e-05, momentum=0.1, affine=True, track_running_stats=True)
    (13): ReLU(inplace=True)
    (14): MaxPool2d(kernel_size=(2, 2), stride=(2, 1), padding=(0, 1), dilation=1, ceil_mode=False)
    (15): Conv2d(256, 512, kernel_size=(3, 3), stride=(1, 1), padding=(1, 1), bias=False)
    (16): BatchNorm2d(512, eps=1e-05, momentum=0.1, affine=True, track_running_stats=True)
    (17): ReLU(inplace=True)
    (18): Conv2d(512, 512, kernel_size=(3, 3), stride=(1, 1), padding=(1, 1), bias=False)
    (19): BatchNorm2d(512, eps=1e-05, momentum=0.1, affine=True, track_running_stats=True)
    (20): ReLU(inplace=True)
    (21): MaxPool2d(kernel_size=(2, 2), stride=(2, 1), padding=(0, 1), dilation=1, ceil_mode=False)
    (22): Conv2d(512, 512, kernel_size=(2, 2), stride=(1, 1), bias=False)
    (23): BatchNorm2d(512, eps=1e-05, momentum=0.1, affine=True, track_running_stats=True)
    (24): ReLU(inplace=True)
  )
  (rnn): Sequential(
    (0): BidirectionalLSTM(
      (rnn): LSTM(512, 256, bidirectional=True)
      (embedding): Linear(in_features=512, out_features=256, bias=True)
    )
    (1): BidirectionalLSTM(
      (rnn): LSTM(256, 256, bidirectional=True)
      (embedding): Linear(in_features=512, out_features=19, bias=True)
    )
  )
)









epoch 1: 100%|██████████| 10/10 [00:25<00:00,  2.55s/it, acc=0.767, loss=1.55]
epoch 1: train_loss=3.9552444290737285, train_acc=0.5493300852618758








epoch 2: 100%|██████████| 10/10 [00:21<00:00,  2.13s/it, acc=0.887, loss=0.485]
epoch 2: train_loss=1.0477456802572607, train_acc=0.785221274868047








epoch 3: 100%|██████████| 10/10 [00:21<00:00,  2.19s/it, acc=0.918, loss=0.325]
…
